RENUSRIexp7.pt (torch, 41712 bytes, 7 tensors)

encoder.0.weight f4 [16, 1, 3, 3]
-0.04286675 -0.16478914 0.16689786 0.13905026 -0.25829187 0.21657413 0.2842154 -0.12144414
0.2136466 0.038977914 0.096017435 0.2668269 -0.16224135 -0.36641032 0.26075006 0.043574125
-0.070342205 0.26000574 0.029898252 -0.08884372 -0.22945964 0.041951288 0.08479977 0.11435071
0.11266692 0.4534415 0.36947304 0.25767472 0.06797672 -0.010273002 -0.20992158 -0.05271261
-0.12069944 -0.15705891 -0.007908149 0.20841812 -0.25077692 -0.33262515 0.22158468 -0.32044452
0.11729852 0.29663247 0.0764733 0.3939179 0.32740143 -0.015186918 -0.12368959 -0.037778508
0.004182882 0.09334098 0.2642218 -0.08960032 0.24885459 -0.25215557 -0.22958314 0.12534797
-0.0008893312 0.05988015 -0.042439412 -0.107153066 -0.09158845 -0.10047576 0.16255464 -0.12060619
0.009791684 0.16201045 -0.025327606 0.26200217 -0.01652055 -0.0294191 -0.020216413 0.13682443
0.015586221 0.051886383 -0.0012067051 0.23862147 0.35422203 0.12456676 0.25058636 0.34190178
0.111048065 -0.097902946 -0.11891195 -0.094327345 0.123690136 0.16591439 0.21000288 0.0986928
-0.23224376 -0.0928321 0.2539592 0.26152366 0.2402481 0.39328435 0.10940168 -0.09946648
0.34458458 -0.013475504 -0.19174713 0.039892238 0.12515534 -0.09384171 -0.21277268 -0.028901702
0.055838626 0.058215346 0.19270568 -0.10416867 0.0035997625 0.25454766 0.28634396 0.02946633
0.3789095 0.46683383 -0.034073405 0.13733588 0.108218245 -0.13023603 -0.14958228 -0.18993075
-0.17042942 -0.07033661 -0.18541662 -0.17804904 -0.1540284 -0.14958706 0.37289235 0.43922332
0.10578599 0.3308719 0.3919918 0.10710454 0.025531955 -6.244464e-05 0.07138314 0.24195313
0.3922861 -0.034441426 0.13054338 0.09627189 -0.34743637 0.06574595 0.06592077 0.14017336
00000000: 0c95 2fbd 7cbe 28be 46e7 2a3e 3163 0e3e
00000010: d53e 84be 9cc5 5d3e ae84 913e b5b7 f8bd
00000020: 2dc6 5a3e 4ea7 1f3d caa4 c43d 899d 883e
00000030: 9922 26be 229a bbbe 0881 853e c87a 323d
00000040: 930f 90bd 791f 853e 2eed f43c b2f3 b5bd
00000050: 78f7 6abe 1dd5 2b3d 80ab ad3d b430 ea3d
00000060: eabd e63d 7c29 e83e 922b bd3e f1ed 833e
00000070: 6137 8b3d 1850 28bc aff5 56be 2ee9 57bd
00000080: 4531 f7bd 0dd4 20be 2e91 01bc 8f6b 553e
00000090: d565 80be d84d aabe 18e7 623e 4e11 a4be
000000a0: 353a f03d 36e0 973e 099e 9c3d 9baf c93e
000000b0: 29a1 a73e 8dd2 78bc f850 fdbd a3bd 1abd
000000c0: 8f10 893b 8e29 bf3d 1448 873e 5f80 b7bd
000000d0: bdd3 7e3e 891a 81be d817 6bbe 385b 003e
000000e0: 0222 69ba e344 753d f3d4 2dbd 1173 dbbd
000000f0: ba92 bbbd 3cc6 cdbd b974 263e 6100 f7bd
00000100: 4d6d 203c 11e6 253e d77b cfbc 2625 863e
00000110: 1b56 87bc 5300 f1bc e49c a5bc b41b 0c3e
00000120: 595d 7f3c d186 543d 4e2a 9eba 3059 743e
00000130: 975c b53e dc1c ff3d db4c 803e c00d af3e
00000140: 2b6d e33d 5781 c8bd 1c88 f3bd b22e c1bd
00000150: 4151 fd3d 76e5 293e ff0a 573e 731f ca3d
00000160: 4fd1 6dbe c21e bebd f106 823e 6ee6 853e
00000170: 9903 763e 915c c93e fd0d e03d 15b5 cbbd
00000180: 646d b03e 5cc8 5cbc 5c59 44be 0b66 233d
00000190: b928 003e 1530 c0bd 15e1 59be 43c3 ecbc
000001a0: 0bb7 643d 3773 6e3d a354 453e 6256 d5bd
000001b0: fee9 6b3b 1254 823e ad9b 923e 5f63 f13c
000001c0: 6d00 c23e d804 ef3e 8e90 0bbd c7a1 0c3e
000001d0: 87a1 dd3d 985c 05be 192c 19be 357d 42be
000001e0: 0d85 2ebe a40c 90bd dbdd 3dbe 7d52 36be
000001f0: 9fb9 1dbe 5a2d 19be bfeb be3e e1e1 e03e
00000200: 53a6 d83d 0b68 a93e 26b3 c83e a059 db3d
00000210: 6428 d13c b6f4 82b8 5331 923d 90c2 773e
00000220: b9d9 c83e 7412 0dbd 2aad 053e 322a c53d
00000230: 2ee3 b1be d0a5 863d 7801 873d 9b89 0f3e

encoder.0.bias f4 [16]
0.46386775 0.30135745 0.22435087 0.44867638 0.03291551 0.24170342 0.36952084 0.3575186
-0.5013023 0.38760707 -0.46795577 0.22110339 -0.4979105 0.59921986 -0.5639446 0.24316704
00000000: 1380 ed3e 864b 9a3e 3cbc 653e e9b8 e53e
00000010: 6ad2 063d 1a81 773e d631 bd3e ae0c b73e
00000020: 5955 00bf 6f74 c63e e697 efbe ed68 623e
00000030: 20ee febe 7966 193f ac5e 10bf c800 793e

encoder.2.weight f4 [32, 16, 3, 3]
-0.14566678 0.033669196 0.10963023 -0.14581153 0.07197755 0.04975408 -0.030194875 0.10472762
0.034605775 0.018760387 -0.11050738 0.052303925 -0.050064262 0.052668888 0.010230406 -0.088734075
0.059465643 0.045463085 0.06019434 -0.115242384 -0.108328976 -0.096334815 0.11947201 -0.06555263
0.23465298 0.059667956 0.052826423 -0.044506997 -0.15514196 0.074158825 -0.124012955 0.14133157
0.0032764173 -0.09291307 -0.086646155 0.13580875 0.13368191 0.07225026 0.038876567 0.08449328
-0.117940836 0.019985601 0.10230357 0.025360515 0.04955998 0.027159061 -0.022383155 -0.00691463
-0.022564271 -0.031685427 0.07116141 -0.11460042 0.014974917 -0.015072018 -0.054783057 0.05564077
0.03731464 -0.09307284 0.05919702 0.0052756607 -0.14592783 -0.020407306 -0.03393184 0.07626071
-0.0069518504 0.019396663 0.04042858 -0.046101622 -0.039467845 -0.04874803 -0.060639486 0.009151146
0.118212566 0.1887056 0.1712445 0.3614276 -0.50324714 -0.60307 0.5012749 -0.26682812
-0.16367866 -0.11244586 0.065750316 -0.03499072 -0.042432427 -0.018511815 -0.011831469 -0.039416358
-0.10953744 -0.047074717 0.13354886 0.17007907 0.1436355 0.34191355 0.13162288 -0.21958815
0.53624964 -0.119798444 -0.078910604 0.038142443 -0.005893895 -0.09398574 -0.0120386155 0.11041822
-0.035753366 0.031338673 0.028947733 0.090993814 0.20751911 0.28150076 0.5501922 0.067051
-0.53444076 -0.2590733 -0.15328237 -0.42001313 -0.08586015 -0.35310784 -0.10139235 -0.026665268
-0.19008344 -0.048554488 -0.13626623 -0.24184914 0.009921937 0.046300616 -0.006697588 0.21348312
0.50250405 0.18556817 -0.036148928 -0.25455108 0.19248207 -0.4257276 -0.18608037 -0.09469083
0.06250878 -0.03612254 0.016696824 0.02414749 -0.013967527 0.22790627 -0.04089055 0.023918925
0.15319446 -0.075165555 -0.0008965037 -0.28609967 0.22870088 -0.075223304 -0.13786803 0.1666122
-0.2475968 0.15748473 0.051333796 0.020066636 -0.15811832 0.008335798 0.030102981 -0.015681034
-0.054280154 -0.2366418 0.23736331 0.11361845 0.11340982 0.0944731 -0.2690966 -0.0049343864
0.07109253 0.32509065 -0.0064136065 0.18798585 -0.12290458 0.06652791 -0.3436304 0.008819442
0.122946545 -0.21256667 -0.010550539 -0.16753294 0.15898974 0.22137882 0.07394248 0.2759406
-0.24415137 -0.13632545 0.21775582 -0.06823446 0.06672543 0.08481031 0.10154581 0.090454414
-0.16410445 -0.038964443 0.09652484 0.01942087 0.0982949 -0.23831348 0.1884286 0.09645166
0.14812343 -0.243948 0.2833907 0.096004814 -0.2006144 0.15383302 -0.07711681 0.07380364
0.18657361 0.12372016 0.2558012 -0.31302327 -0.160938 0.17870182 -0.2023927 0.065653466
0.005829298 0.21244267 -0.0011371464 0.31586808 -0.25471234 -0.29175416 0.29720888 0.26832575
0.1911562 -0.20655283 -0.011176941 0.016938798 -0.07965228 0.103490934 -0.18937343 0.03147956
0.051486578 0.06287907 -0.020076763 0.26762944 0.020613251 0.011649032 0.38861403 -0.1626553
-0.11557231 -0.030049568 0.0043140603 0.19584475 0.14858495 -0.16878638 -0.10777752 -0.19079371
0.18795972 -0.121382445 0.054514363 -0.08553871 0.08272947 0.12860133 -0.02467011 0.33325267
00000000: ac29 15be b6e8 093d d085 e03d 9e4f 15be
00000010: f768 933d efca 4b3d 3e5b f7bc 6f7b d63d
00000020: c9be 0d3d 62af 993c b151 e2bd a43c 563d
00000030: 2f10 4dbd 55bb 573d 6f9d 273c 36ba b5bd
00000040: 3f92 733d 8037 3a3d 578e 763d 3304 ecbd
00000050: 95db ddbd 304b c5bd bead f43d 7540 86bd
00000060: df48 703e 6366 743d 8560 583d f84c 36bd
00000070: 89dd 1ebe 95e0 973d 81fa fdbd 39b9 103e
00000080: 29b9 563b 3549 bebd 8a73 b1bd 7311 0b3e
00000090: e9e3 083e f2f7 933d 093d 1f3d d00a ad3d
000000a0: f78a f1bd d8b8 a33c 8984 d13d dbc0 cf3c
000000b0: 68ff 4a3d ae7c de3c e15c b7bc 1f94 e2bb
000000c0: b5d8 b8bc 94c8 01bd 13bd 913d a0b3 eabd
000000d0: 5b59 753c a0f0 76bc 3364 60bd 93e7 633d
000000e0: 3cd7 183d f99c bebd 9378 723d 73df ac3b
000000f0: 1b6e 15be 392d a7bc 1dfc 0abd 932e 9c3d
00000100: 59cc e3bb c0e5 9e3c 7098 253d 0ed5 3cbd
00000110: 09a9 21bd 04ac 47bd 1c61 78bd b0ee 153c
00000120: 6e19 f23d 0a3c 413e b85a 2f3e 0a0d b93e
00000130: ced4 00bf cc62 1abf 8d53 003f b29d 88be
00000140: 619b 27be 044a e6bd 1aa8 863d 6e52 0fbd
00000150: a0cd 2dbd 17a6 97bc c7d8 41bc 0c73 21bd
00000160: 2a55 e0bd 6bd1 40bd 08c1 083e 3529 2e3e
00000170: 2f15 133e 4b0f af3e 26c8 063e b7db 60be
00000180: a847 093f e358 f5bd e29b a1bd 403b 1c3d
00000190: 9321 c1bb 987b c0bd 9d3d 45bc f322 e23d
000001a0: 1f72 12bd fb5c 003d cc23 ed3c f75a ba3d
000001b0: e47f 543e de20 903e 65d9 0c3f 0952 893d
000001c0: 1cd1 08bf 41a5 84be 0ef6 1cbe f60b d7be
000001d0: 72d7 afbd 8dca b4be cba6 cfbd 1f71 dabc
000001e0: 3ca5 42be 12e1 46bd 6089 0bbe 4da7 77be
000001f0: 9f8f 223c b7a5 3d3d 7177 dbbb 529b 5a3e
00000200: 1ba4 003f 9505 3e3e e610 14bd 8554 82be
00000210: 051a 453e f8f8 d9be da8b 3ebe 44ed c1bd
00000220: 9a04 803d 3af5 13bd c7c7 883c f5d0 c53c
00000230: 0ed8 64bc 4360 693e d97c 27bd 9ff1 c33c
00000240: 02df 1c3e 66f0 99bd 5803 6bba a87b 92be
00000250: 9030 6a3e ad0e 9abd 472d 0dbe 639c 2a3e
00000260: 048a 7dbe ad43 213e 6343 523d c962 a43c
00000270: c5e9 21be df92 083c 879a f63c 8375 80bc
00000280: de54 5ebd 3a52 72be 5e0f 733e cab0 e83d
00000290: 6843 e83d 1d7b c13d 08c7 89be a2b0 a1bb
000002a0: f698 913d 4872 a63e 3b29 d2bb 5d7f 403e
000002b0: 65b5 fbbd c93f 883d 53f0 afbe 6c7f 103c
000002c0: 66cb fb3d 14ab 59be 2bdc 2cbc c18d 2bbe
000002d0: 35ce 223e 21b1 623e 286f 973d 1648 8d3e
000002e0: d102 7abe e698 0bbe 62fb 5e3e 82be 8bbd
000002f0: 58a7 883d 07b1 ad3d 40f7 cf3d 2a40 b93d
00000300: ff0a 28be 2e99 1fbd d1ae c53d 8418 9f3c
00000310: d64e c93d 7308 74be 6df3 403e 7388 c53d
00000320: abad 173e 81cd 79be 9618 913e 2c9e c43d
00000330: dc6d 4dbe 6786 1d3e 6bef 9dbd 5d26 973d
00000340: 270d 3f3e ff60 fd3d 60f8 823e 9644 a0be
00000350: eecc 24be 9cfd 363e 0840 4fbe 5375 863d
00000360: b203 bf3b 928a 593e 4d0c 95ba 76b9 a13e
00000370: a869 82be cd60 95be c32b 983e fe61 893e
00000380: 73be 433e 9682 53be 7d1f 37bc 3cc3 8a3c
00000390: bc20 a3bd 0ef3 d33d 1ceb 41be b6f0 003d
000003a0: 97e3 523d bec6 803d 0678 a4bc ba06 893e
000003b0: 1fdd a83c 95db 3e3c 6bf8 c63e 1c8f 26be
000003c0: 2db1 ecbd 832a f6bc f65c 8d3b 878b 483e
000003d0: a726 183e 56d6 2cbe 76ba dcbd 6d5f 43be
000003e0: 8378 403e 5c97 f8bd 744a 5f3d eb2e afbd
000003f0: 126e a93d 11b0 033e f818 cabc 18a0 aa3e

encoder.2.bias f4 [32]
0.06892819 0.1187759 0.113978975 0.11751814 0.07333755 0.027494678 0.049749188 0.10299817
0.035110693 0.10139763 0.03932726 -0.028742554 -0.027365334 0.039966237 0.12343772 0.10643416
0.1956667 0.089267686 0.21610615 -0.022939233 0.13731591 0.04538307 -0.015474767 0.014506432
0.053520445 0.09017711 0.14743477 0.10542261 0.01238478 0.014047852 0.12400633 0.12198886
00000000: 392a 8d3d c740 f33d cf6d e93d 5aad f03d
00000010: ff31 963d 853c e13c cec5 4b3d b4f0 d23d
00000020: 3bd0 0f3d 90a9 cf3d 9f15 213d 8175 ebbc
00000030: 442d e0bc a3b3 233d eacc fc3d 27fa d93d
00000040: da5c 483e fad1 b63d ee4a 5d3e 0feb bbbc
00000050: 8b9c 0c3e 99e3 393d e189 7dbc 63ac 6d3c
00000060: 4138 5b3d c7ae b83d 24f9 163e cfe7 d73d
00000070: 88e9 4a3c f628 663c 08f7 fd3d 4cd5 f93d

decoder.0.weight f4 [32, 16, 3, 3]
0.039575096 -0.17814098 -0.056901824 -0.17137682 0.029697768 0.15534697 0.10026139 0.14406313
0.107281186 -0.04833303 -0.05556225 0.036175285 0.07138233 0.010218611 0.0016082624 -0.064294614
-0.034411114 0.0028308237 -0.0005334353 -0.048658274 -0.08266468 0.024232859 -0.07100362 -0.0025534255
0.00971933 -0.10362133 0.05688219 -0.047512572 0.01690816 0.041654807 0.03732012 -0.28565538
-0.069596894 -0.087888926 -0.20550242 -0.0041247434 -0.24336073 -0.047494397 -0.2898054 -0.0054565924
0.092222214 0.1665155 0.075225 -0.010190777 0.09558036 -0.057244044 0.07377896 0.025645325
-0.03860206 -0.07232106 -0.036013015 -0.07199327 0.36212653 0.058299765 -0.11689119 -0.085941166
0.088964045 -0.168695 0.06424766 0.22146939 0.03787703 0.14488418 0.19544744 0.09361198
-0.022168884 -0.074511446 -0.22850935 -0.073393755 0.25811282 -0.29178235 0.14957625 0.01617765
-0.004724429 -0.20612557 -0.2996853 -0.21574196 0.06994234 0.12848817 -0.39801484 0.15488356
0.076821305 -0.106665894 -0.09522967 0.062087607 0.04171635 0.17675923 -0.04249585 -0.0021565638
0.052103907 0.09876621 -0.12664378 -0.15270217 0.059306875 -0.15249619 0.064212054 0.33070484
-0.17550072 0.2943065 -0.00012332553 0.030285643 -0.08454932 -0.049467478 0.16503853 -0.060106482
-0.08595908 0.058710463 0.16041245 0.029693456 -0.27552438 -0.05457575 0.19824786 0.02775623
0.20376898 0.19664773 -0.043492343 0.25570944 0.060749933 -0.10467759 -0.28920612 0.09513123
-0.22027679 0.07493088 -0.040077884 0.14784183 -0.04000582 0.113876924 -0.2733926 -0.11390822
0.029773304 -0.20985782 0.10054724 0.24944642 -0.0016155876 0.0008551732 0.16903761 0.061800666
0.2006739 0.2762822 -0.07368699 -0.06713019 0.03726877 0.08790199 -0.28350013 -0.06346379
0.11595519 -0.011673039 0.015978064 -0.13702938 0.023027431 -0.020592859 -0.13269588 0.0070909862
-0.15869133 0.04093817 -0.04361 0.046419784 -0.0107256835 0.028115567 -0.06610909 -0.01396041
-0.07504376 0.021308748 0.041282836 0.024977202 0.008291217 0.024180397 -0.1920726 -0.08414051
-0.050454628 -0.12966341 -0.016560692 0.0032926823 -0.05699495 -0.009537929 -0.044479303 -0.11053482
0.06491325 -0.017106313 -0.21830013 -0.08283776 0.07135151 -0.0010832419 -0.14586632 0.09532956
0.23993452 -0.3111583 -0.21158923 -0.20160423 -0.109922506 0.009764989 0.2992063 0.016071657
0.002329602 0.0021140713 -0.0471647 0.03783402 0.12849127 0.01662798 -0.11972569 0.03786929
0.014198024 -0.15215136 0.34363648 0.0070743063 -0.16045876 0.23504172 -0.050076976 0.22220784
-0.09364651 0.17019907 0.100465536 -0.2580159 0.34302336 0.14579344 0.12786016 0.15791537
0.12069878 -0.0064571975 -0.026713649 -0.17736518 -0.17535484 0.31634125 -0.2758177 0.049537178
0.07966958 0.13636053 -0.016616233 -0.15288746 -0.075606495 0.09907593 -0.025546096 -0.03142812
0.09983695 -0.1544905 -0.081564456 0.11095594 0.040742945 -0.17598978 0.2344927 0.11111262
-0.09975524 -0.12393788 -0.05644782 0.07217897 -0.0051606055 -0.06265463 0.15075162 -0.17294717
0.08236979 -0.08928842 0.1328021 -0.052677758 -0.104489036 -0.061987925 0.121653855 -0.1907607
00000000: 7f19 223d 976a 36be e311 69bd 687d 2fbe
00000010: bc48 f33c 4713 1f3e d855 cd3d 4985 133e
00000020: 3db6 db3d dbf8 45bd 3e95 63bd 892c 143d
00000030: e630 923d f66b 273c 55cc d23a e5ac 83bd
00000040: abf2 0cbd 5785 393b 3dd6 0bba e64d 47bd
00000050: 1a4c a9bd fd83 c63c 596a 91bd 5f57 27bb
00000060: d33d 1f3c 6b37 d4bd 4dfd 683d 8b9c 42bd
00000070: fb82 8a3c 3b9e 2a3d fbdc 183d 6c41 92be
00000080: d188 8ebd 1cff b3bd 3a6f 52be db28 87bb
00000090: 8e33 79be 7c89 42bd 6061 94be 37cd b2bb
000000a0: 00df bc3d 0a83 2a3e 910f 9a3d 37f7 26bc
000000b0: a3bf c33d bb78 6abd 6c19 973d 2516 d23c
000000c0: 321d 1ebd 101d 94bd 6282 13bd 3571 93bd
000000d0: a668 b93e bccb 6e3d a664 efbd ec01 b0bd
000000e0: c832 b63d 62be 2cbe 4794 833d dfc8 623e
000000f0: f224 1b3d 855c 143e 6023 483e a3b7 bf3d
00000100: 859b b5bc 7599 98bd 5bfe 69be 774f 96bd
00000110: 5d27 843e 7f64 95be 842a 193e fe86 843c
00000120: 62cf 9abb 9512 53be 5a70 99be 76eb 5cbe
00000130: ee3d 8f3d 6792 033e 9ac8 cbbe cc99 1e3e
00000140: 7d54 9d3d a673 dabd c607 c3bd 934f 7e3d
00000150: c3de 2a3d 5f00 353e 2110 2ebd 2355 0dbb
00000160: e86a 553d f045 ca3d e8ae 01be f55d 1cbe
00000170: c4eb 723d f627 1cbe 9c81 833d 2552 a93e
00000180: 76b6 33be 57af 963e f250 01b9 9919 f83c
00000190: 3228 adbd 699e 4abd dcff 283e 3732 76bd
000001a0: 500b b0bd 627a 703d 2943 243e b13f f33c
000001b0: 8811 8dbe d28a 5fbd 7d01 4b3e 0961 e33c
000001c0: d1a8 503e 065e 493e 0725 32bd 59ec 823e
000001d0: ecd4 783d 3461 d6bd d312 94be 2ad4 c23d
000001e0: 3d90 61be 5c75 993d b528 24bd d963 173e
000001f0: 25dd 23bd 4e38 e93d 1dfa 8bbe b648 e9bd
00000200: 25e7 f33c f8e4 56be b6eb cd3d e26e 7f3e
00000210: 20c2 d3ba b42d 603a 3218 2d3e b222 7d3d
00000220: 757d 4d3e dc74 8d3e 34e9 96bd 8e7b 89bd
00000230: 23a7 183d f505 b43d ee26 91be 4ef9 81bd
00000240: ea79 ed3d 4640 3fbc 6ee4 823c 6e51 0cbe
00000250: 06a4 bc3c 5bb2 a8bc 6ee1 07be 815b e83b
00000260: fb7f 22be c8ae 273d 66a0 32bd ac22 3e3d
00000270: c7ba 2fbc 9e52 e63c 3464 87bd 34ba 64bc
00000280: 8bb0 99bd af8f ae3c 3118 293d fd9c cc3c
00000290: e2d7 073c f815 c63c aeae 44be dc51 acbd
000002a0: 83a9 4ebd 7cc6 04be 4aaa 87bc 0bca 573b
000002b0: 8973 69bd f944 1cbc ee2f 36bd 1460 e2bd
000002c0: 3df1 843d 8a22 8cbc 128a 5fbe d8a6 a9bd
000002d0: be20 923d 91fb 8dba fb5d 15be 253c c33d
000002e0: 65b1 753e 2450 9fbe d9aa 58be 5771 4ebe
000002f0: 0d1f e1bd 55fd 1f3c 9131 993e b5a8 833c
00000300: 3cac 183b 3b8c 0a3b c62f 41bd d8f7 1a3d
00000310: 3793 033e 6737 883c be32 f5bd d41c 1b3d
00000320: d49e 683c 91cd 1bbe 1ff1 af3e 95cf e73b
00000330: 4d4f 24be c7ae 703e 841d 4dbd 748a 633e
00000340: bec9 bfbd aa48 2e3e e0c0 cd3d a91a 84be
00000350: c2a0 af3e e04a 153e c6ed 023e 91b4 213e
00000360: ec30 f73d e696 d3bb 95d6 dabc 389f 35be
00000370: 3890 33be 7bf7 a13e fa37 8dbe 7fe7 4a3d
00000380: ce29 a33d 18a2 0b3e c41e 88bc 888e 1cbe
00000390: 94d7 9abd 52e8 ca3d 0c46 d1bc c6ba 00bd
000003a0: 5177 cc3d c232 1ebe 440b a7bd de3c e33d
000003b0: 13e2 263d aa36 34be db1e 703e 038f e33d
000003c0: 7a4c ccbd 25d3 fdbd d435 67bd 91d2 933d
000003d0: 4c1a a9bb 1251 80bd a25e 1a3e 1019 31be
000003e0: 7eb1 a83d d9dc b6bd 46fd 073e a2c4 57bd
000003f0: 59fe d5bd 0de7 7dbd a825 f93d c656 43be

decoder.0.bias f4 [16]
0.08839759 0.005156199 0.04361449 0.006237164 0.1024883 0.026623316 -3.0445626e-06 0.045794528
0.02522556 0.06308952 0.103301845 0.0012087227 0.046680488 0.12413649 0.09160074 -0.026607176
00000000: cc09 b53d 55f5 a83b 1ca5 323d 2061 cc3b
00000010: 63e5 d13d 2419 da3c 3051 4cb6 0b93 3b3d
00000020: d5a5 ce3c 1435 813d eb8f d33d 016e 9e3a
00000030: 0a34 3f3d 463b fe3d 2b99 bb3d 4bf7 d9bc

decoder.2.weight f4 [16, 1, 3, 3]
-0.28034064 -0.257288 0.021857569 -0.27952757 -0.5059007 0.020917593 0.022091923 0.056773573
-0.2923824 -0.011187478 -0.08391198 -0.051480956 -0.16665961 0.2789781 0.011003955 0.21525826
0.19935443 0.073433734 0.39359906 0.10903732 0.21173693 -0.23895875 -0.13515542 0.14535305
-0.21000603 0.21517046 0.09088632 -0.10262085 0.28497 0.32864088 0.093635514 0.5475018
0.19640833 -0.07503531 -0.16451557 0.019090632 -0.058157057 0.009383482 0.050218113 0.014038005
-0.45548683 -0.5193336 0.12602277 -0.35803917 -0.3649637 -0.07644721 -0.12684344 0.116204284
-0.31177917 0.2628682 -0.05500107 0.34877184 0.43045318 0.34828365 -0.105502196 -0.52944547
-0.36959824 -0.06892532 -0.5447064 -0.30641177 -0.024001433 -0.4694108 -0.25077948 -0.285393
-0.16589548 0.021631692 -0.4874606 -0.08440313 -0.06051839 -0.2082173 0.28516355 0.060900193
-0.19774453 -0.4089255 -0.17060098 -0.2775294 -0.54708993 -0.13101524 -0.19329369 -0.31708512
0.053198427 0.29191795 0.0307274 -0.25893787 -0.15701294 -0.32673305 0.18244676 -0.3077764
-0.36029634 0.21682322 -0.07822784 -0.085637614 0.1517078 -0.1844477 -0.45096266 -0.0010363953
0.059769537 -0.5244792 -0.029592415 -0.12821645 -0.10626489 0.18880071 -0.22487512 0.46974894
0.31297162 -0.3312203 -0.19994119 -0.3688017 0.12821987 0.09117227 -0.015627876 -0.33705667
-0.44936734 -0.42379853 -0.18978247 -0.11787927 -0.2865935 -0.05379288 0.15389216 -0.031887498
-0.43585423 -0.26827332 -0.48385042 -0.37053046 -0.06931224 -0.06039034 -0.30399987 -0.4795421
-0.21329685 -0.20780483 -0.39980254 -0.21947598 -0.32485962 -0.37085178 -0.14431913 0.34250483
0.5020345 0.22828437 0.39635047 0.46073753 0.45511582 0.19108127 0.08292254 0.010419854
00000000: cf88 8fbe 41bb 83be a50e b33c 3d1e 8fbe
00000010: b582 01bf 5f5b ab3c 1ffa b43c 688b 683d
00000020: 25b3 95be af4b 37bc 0bda abbd b2dd 52bd
00000030: d1a8 2abe 38d6 8e3e ef49 343c a96c 5c3e
00000040: 9123 4c3e 6d64 963d d185 c93e f54e df3d
00000050: 91d1 583e 9ab1 74be 2f66 0abe 6ed7 143e
00000060: d20b 57be a555 5c3e 9b22 ba3d e12a d2bd
00000070: 96e7 913e 9e43 a83e fac3 bf3d 1429 0c3f
00000080: 441f 493e 1dac 99bd c576 28be f563 9c3c
00000090: 1836 6ebd 2dbd 193c 82b1 4d3d a9ff 653c
000000a0: 9235 e9be 0cf3 04bf 1d0c 013e e950 b7be
000000b0: 86dc babe 5b90 9cbd 3fe3 01be 83fc ed3d
000000c0: 85a1 9fbe a996 863e cd48 61bd 3992 b23e
000000d0: 5c64 dc3e 3c52 b23e 8911 d8bd bd89 07bf
000000e0: fb3b bdbe b828 8dbd e171 0bbf 01e2 9cbe
000000f0: a79e c4bc 9d56 f0be 2b66 80be 081f 92be
00000100: 81e0 29be f234 b13c 7094 f9be 8cdb acbd
00000110: 22e2 77bd ea36 55be f500 923e 7b72 793d
00000120: 8b7d 4abe af5e d1be 06b2 2ebe 5518 8ebe
00000130: 160e 0cbf dc28 06be c8ee 45be fb58 a2be
00000140: 98e6 593d 4576 953e 07b8 fb3c 8193 84be
00000150: 00c8 20be 8e49 a7be 53d3 3a3e de94 9dbe
00000160: c378 b8be e806 5e3e eb35 a0bd c662 afbd
00000170: 4a59 1b3e dcdf 3cbe 94e4 e6be a8d7 87ba
00000180: e7d0 743d 4544 06bf cb6b f2bc 2c4b 03be
00000190: 68a1 d9bd f954 413e aa45 66be ef82 f03e
000001a0: d13d a03e b595 a9be 62bd 4cbe 94d3 bcbe
000001b0: 124c 033e 87b8 ba3d 0806 80bc b192 acbe
000001c0: 7a13 e6be 1ffc d8be 5656 42be b06a f1bd
000001d0: 62bc 92be ec55 5cbd e895 1d3e 779c 02bd
000001e0: 4928 dfbe 1f5b 89be 3ebb f7be 2bb6 bdbe
000001f0: 93f3 8dbd dc5b 77bd dfa5 9bbe 8b86 f5be
00000200: 7d6a 5abe caca 54be ebb2 ccbe 50be 60be
00000210: 0054 a6be 49e0 bdbe 65c8 13be cb5c af3e
00000220: 5585 003f 61c3 693e 73ee ca3e cae5 eb3e
00000230: f104 e93e cfaa 433e 4bd3 a93d 09b8 2a3c
